weights_matrix.npy (npy, 925328 bytes, 1 tensors)

array f8 [2313, 50]
000000 ee 3d 5c 72 dc 29 d1 3f 5b 5f 24 b4 e5 5c c2 3f
       0.26818 0.14346
000010 65 c7 46 20 5e d7 d1 bf 8a 04 53 cd ac a5 90 3f
       -0.27877 0.016257
000020 14 05 fa 44 9e 24 bd 3f 00 3a cc 97 17 60 e6 3f
       0.11384 0.69923
000030 3e 3f 8c 10 1e 6d e0 bf e2 3b 31 eb c5 50 de bf
       -0.51332 -0.47368
000040 5e ba 49 0c 02 2b d5 bf 13 44 dd 07 20 b5 c1 bf
       -0.33075 -0.13834
000050 d0 44 d8 f0 f4 4a d1 3f b0 55 82 c5 e1 cc d3 3f
       0.2702 0.30938
000060 1f a2 d1 1d c4 ce dc bf ef c9 c3 42 ad 69 da bf
       -0.45012 -0.4127
000070 5b b6 d6 17 09 6d b9 bf ab b2 ef 8a e0 7f a3 3f
       -0.09932 0.038085
000080 39 d5 5a 98 85 76 9e 3f b3 b5 be 48 68 cb b9 3f
       0.029749 0.10076
000090 0c 07 42 b2 80 09 d0 bf f7 1e 2e 39 ee 94 e0 bf
       -0.25058 -0.51818
0000a0 20 b5 89 93 fb 1d d6 3f 39 62 2d 3e 05 c0 dc 3f
       0.34558 0.44922
0000b0 0b 0c 59 dd ea 39 df 3f e8 bb 5b 59 a2 b3 b4 bf
       0.48791 -0.080866
0000c0 7e 35 07 08 e6 e8 b9 bf ec 2f bb 27 0f 0b f6 bf
       -0.10121 -1.3777
0000d0 e2 23 62 4a 24 d1 bb bf a6 27 2c f1 80 b2 cd bf
       -0.10866 -0.23201
0000e0 e6 20 e8 68 55 4b 8a 3f f9 83 81 e7 de c3 dd bf
       0.012839 -0.46508
0000f0 a1 d6 34 ef 38 c5 0e 40 fc c6 d7 9e 59 12 d4 3f
       3.8463 0.31362
000100 66 bd 18 ca 89 76 c1 3f 64 e9 43 17 d4 b7 e0 bf
       0.13643 -0.52244
000110 a7 e8 48 2e ff 21 d5 3f 34 9d 9d 0c 8e 92 d5 3f
       0.3302 0.33707
000120 29 22 c3 2a de c8 d6 bf 36 02 f1 ba 7e c1 d4 3f
       -0.35601 0.32431
000130 17 82 1c 94 30 d3 be 3f 99 bb 96 90 0f 7a d6 3f
       0.12041 0.3512
000140 d2 89 04 53 cd ac b1 bf 5e 4b c8 07 3d 9b d7 3f
       -0.069043 0.36885
000150 7a aa 43 6e 86 1b d0 3f c4 eb fa 05 bb 61 cf bf
       0.25168 -0.24517
000160 e6 74 59 4c 6c 3e d0 3f 56 7d ae b6 62 7f c1 3f
       0.25381 0.1367
000170 15 00 e3 19 34 f4 d3 bf b5 a6 79 c7 29 3a e4 bf
       -0.31178 -0.6321
000180 bf f1 b5 67 96 04 d0 bf a7 74 b0 fe cf 61 d8 bf
       -0.25028 -0.38097
000190 01 87 50 a5 66 0f e6 3f 3a 7a fc de a6 3f bb bf
       0.68938 -0.10644
0001a0 af 7c 96 e7 c1 dd c5 3f 76 c3 b6 45 99 0d d8 bf
       0.17083 -0.37583
0001b0 04 e7 8c 28 ed 0d e8 3f 27 ce fe fe 9c 9b 49 3f
       0.7517 0.00078149
0001c0 92 b3 b0 a7 1d fe e0 bf ef 20 76 a6 d0 79 c9 bf
       -0.53102 -0.19903
0001d0 bf 82 34 63 d1 74 c2 bf 37 71 72 bf 43 51 c0 3f
       -0.14419 0.12748
0001e0 6f f5 9c f4 be f1 d1 bf a8 00 18 cf a0 a1 e6 3f
       -0.28038 0.70723
0001f0 1d 5a 64 3b df 4f e1 bf 1f 85 eb 51 b8 1e c9 3f
       -0.541 0.19625
000200 ce aa cf d5 56 ec ee 3f 3d b8 3b 6b b7 5d e3 3f
       0.96635 0.60519
000210 8e 58 8b 4f 01 30 da 3f 84 82 52 b4 72 2f a0 bf
       0.40918 -0.031612
000220 73 68 91 ed 7c 3f e1 3f 3c a0 6c ca 15 de eb bf
       0.539 -0.87086
000230 31 42 78 b4 71 c4 ca bf a8 6f 99 d3 65 31 e2 3f
       -0.20912 0.56853
000240 05 6e dd cd 53 1d e5 3f 7b 49 63 b4 8e aa c2 3f
       0.65983 0.14583
000250 76 71 1b 0d e0 2d f0 3f 82 e2 c7 98 bb 96 00 c0
       1.0112 -2.0736
000260 78 9c a2 23 b9 fc f1 bf 48 8e ae b1 cf 8c 43 3f
       -1.1242 0.00059662
000270 52 ed d3 f1 98 81 e6 3f 57 26 fc 52 3f 6f ea bf
       0.70332 -0.82608
000280 75 93 18 04 56 8e 0b 40 b2 68 3a 3b 19 1c d5 3f
       3.4445 0.32984
000290 08 e6 e8 f1 7b 9b d6 bf f0 a7 c6 4b 37 89 f0 bf
       -0.35324 -1.0335
0002a0 8a e5 96 56 43 e2 c2 bf 7d b3 cd 8d e9 09 c3 bf
       -0.14753 -0.14874
0002b0 4b 1f ba a0 be 65 da bf e6 79 70 77 d6 6e d5 3f
       -0.41246 0.33489
0002c0 a1 84 99 b6 7f 65 c9 3f 3c 31 eb c5 50 4e d0 bf
       0.19841 -0.25478
0002d0 f9 14 00 e3 19 34 de bf 77 49 9c 15 51 13 b1 3f
       -0.47193 0.066701
0002e0 ee 08 a7 05 2f fa d4 3f 8a 93 fb 1d 8a 02 e6 3f
       0.32777 0.68781
0002f0 71 8f a5 0f 5d 50 d7 3f b1 f9 b8 36 54 8c cb 3f
       0.36428 0.21522
000300 cd af e6 00 c1 1c c5 3f 43 e2 1e 4b 1f ba da 3f
       0.16494 0.41761
000310 03 5b 25 58 1c ce cc bf 82 39 7a fc de a6 e3 3f
       -0.22504 0.61412
000320 ab 21 71 8f a5 0f df bf 25 af ce 31 20 7b ef 3f
       -0.48533 0.98378
000330 a3 e9 ec 64 70 94 d2 bf 25 cc b4 fd 2b 2b d5 bf
       -0.29031 -0.33076
000340 db 8a fd 65 f7 e4 e7 3f e9 7d e3 6b cf 2c e3 3f
       0.7467 0.59922
000350 a8 35 cd 3b 4e d1 f6 bf 90 4c 87 4e cf bb b5 3f
       -1.4261 0.084897
000360 66 31 b1 f9 b8 36 d0 bf 46 eb a8 6a 82 a8 bb bf
       -0.25334 -0.10804
000370 35 7f 4c 6b d3 d8 b2 bf f5 f3 a6 22 15 c6 ce bf
       -0.073621 -0.24042
000380 32 03 95 f1 ef 33 e3 bf af ce 31 20 7b bd d1 3f
       -0.60009 0.27719
000390 ea 3e 00 a9 4d 9c e3 3f b4 3a 39 43 71 c7 b3 3f
       0.61283 0.077262
0003a0 64 e9 43 17 d4 b7 de bf f0 c4 ac 17 43 39 e0 3f
       -0.47997 0.50699
0003b0 b5 37 f8 c2 64 aa c0 3f 28 0a f4 89 3c 49 e5 3f
       0.1302 0.66519
0003c0 e2 af c9 1a f5 10 eb bf 76 1a 69 a9 bc 1d ee 3f
       -0.84582 0.94113
0003d0 d8 f0 f4 4a 59 86 f1 bf a3 75 54 35 41 d4 d9 3f
       -1.0953 0.40358
0003e0 de 76 a1 b9 4e 23 c5 3f 7c 61 32 55 30 2a 04 c0
       0.16514 -2.5206
0003f0 b9 19 6e c0 e7 87 c5 bf ed bb 22 f8 df 4a ca 3f
       -0.16821 0.20541
000400 db 6d 17 9a eb 34 ca 3f 98 fa 79 53 91 0a b3 3f
       0.20474 0.07438
000410 bf 7d 1d 38 67 c4 05 40 39 0b 7b da e1 af e6 bf
       2.7209 -0.70897
000420 60 ca c0 01 2d 5d a9 bf a8 35 cd 3b 4e d1 ee 3f
       -0.049539 0.96305
000430 17 0e 84 64 01 13 e7 3f c4 ce 14 3a af b1 e1 3f
       0.72107 0.55294
000440 cd 75 1a 69 a9 bc c1 bf fc 1d 8a 02 7d 22 e3 3f
       -0.13857 0.59796
000450 3e cb f3 e0 ee ac e2 3f b2 ba d5 73 d2 fb da bf
       0.58361 -0.42162
000460 8a 8e e4 f2 1f d2 cb bf 1f 85 eb 51 b8 1e d7 3f
       -0.21735 0.36125
000470 4c 4f 58 e2 01 65 c7 3f 2a 8c 2d 04 39 28 d5 3f
       0.18277 0.33058
000480 b0 55 82 c5 e1 cc e2 3f cc ee c9 c3 42 ad b9 3f
       0.58751 0.1003
000490 a6 7e de 54 a4 c2 c4 bf 16 a4 19 8b a6 b3 ee bf
       -0.16219 -0.95943
0004a0 be 87 4b 8e 3b a5 a3 3f 69 1d 55 4d 10 75 e7 bf
       0.03837 -0.73304
0004b0 2a 52 61 6c 21 c8 ee 3f 90 f4 69 15 fd a1 89 3f
       0.96193 0.012516
0004c0 6f 47 38 2d 78 d1 cb 3f cc 45 7c 27 66 bd b0 bf
       0.21733 -0.06539
0004d0 59 fa d0 05 f5 2d d1 3f 3b 36 02 f1 ba 7e d5 3f
       0.26843 0.33586
0004e0 c9 93 a4 6b 26 df dc bf 1c b1 16 9f 02 60 e3 bf
       -0.45112 -0.60547
0004f0 b3 ea 73 b5 15 fb dd bf fe 0e 45 81 3e 91 c7 bf
       -0.46845 -0.18412
000500 8c a3 72 13 b5 34 af 3f a1 a1 7f 82 8b 15 c9 3f
       0.060949 0.19597
000510 07 f0 16 48 50 fc cc 3f e0 9d 7c 7a 6c cb a0 3f
       0.22645 0.032802
000520 e1 5d 2e e2 3b 31 db 3f ec a3 53 57 3e cb df 3f
       0.42488 0.49678
000530 29 d0 27 f2 24 e9 e4 3f e6 3f a4 df be 0e 9c bf
       0.65346 -0.0274
000540 5d 50 df 32 a7 cb c6 3f ed 0d be 30 99 2a f3 bf
       0.17809 -1.1979
000550 fd 9f c3 7c 79 01 da bf c6 e1 cc af e6 00 cd bf
       -0.40634 -0.22659
000560 31 08 ac 1c 5a 64 f2 3f af 5a 99 f0 4b fd e2 3f
       1.1495 0.59342
000570 61 a6 ed 5f 59 69 ce bf 65 c7 46 20 5e d7 ed bf
       -0.23759 -0.93254
000580 94 de 37 be f6 cc e0 bf 3d 0a d7 a3 70 3d aa 3f
       -0.52502 0.05125
000590 78 0a b9 52 cf 82 a0 3f 9a b6 7f 65 a5 49 e7 bf
       0.032248 -0.72774
0005a0 3f c6 dc b5 84 fc 10 40 16 c1 ff 56 b2 63 e3 3f
       4.2466 0.60592
0005b0 72 16 f6 b4 c3 5f d5 3f fe 60 e0 b9 f7 70 eb bf
       0.33397 -0.85754
0005c0 87 16 d9 ce f7 53 df 3f 85 ce 6b ec 12 d5 cb 3f
       0.4895 0.21744
0005d0 2b 13 7e a9 9f 37 c1 bf 6d 61 cc 4c 1f 70 83 3f
       -0.13451 0.0094912
0005e0 f6 62 28 27 da 55 e1 bf 33 dc 80 cf 0f 23 c8 3f
       -0.54173 0.18857
0005f0 f8 a5 7e de 54 a4 e4 bf 39 ee 94 0e d6 ff 89 3f
       -0.64506 0.012695
000600 e1 40 48 16 30 81 e7 3f 22 8e 75 71 1b 0d f0 3f
       0.73452 1.0032
000610 06 bb 61 db a2 cc da 3f 3c da 38 62 2d 3e c5 3f
       0.41874 0.16596
000620 3a 92 cb 7f 48 bf e6 bf a0 c3 7c 79 01 f6 c1 3f
       -0.71085 0.14032
000630 ca 37 db dc 98 9e d8 bf 4a 29 e8 f6 92 c6 d8 bf
       -0.38468 -0.38712
000640 61 97 97 b2 c2 e3 51 bf c0 04 6e dd cd 53 d5 3f
       -0.0010919 0.33324
000650 72 fe 26 14 22 e0 d6 3f b3 cd 8d e9 09 4b e1 bf
       0.35743 -0.54041
000660 ab 26 88 ba 0f 40 ea 3f 07 b6 4a b0 38 9c df bf
       0.82032 -0.49391
000670 25 e9 9a c9 37 db d4 bf b6 d0 df 95 6e 5c 60 3f
       -0.32588 0.0019972
000680 1c 5f 7b 66 49 80 ce bf a9 de 1a d8 2a c1 d6 3f
       -0.23829 0.35554
000690 0d 71 ac 8b db 68 e3 bf 46 eb a8 6a 82 a8 ef 3f
       -0.60655 0.98932
0006a0 c2 a3 8d 23 d6 e2 cb bf 4f e9 60 fd 9f c3 bc 3f
       -0.21786 0.11236
0006b0 c0 5b 20 41 f1 63 f2 3f a5 6b 26 df 6c 73 e7 3f
       1.1494 0.73284
0006c0 ff 09 2e 56 d4 60 e0 3f 75 b0 fe cf 61 be d2 3f
       0.51182 0.29287
0006d0 42 43 ff 04 17 2b d2 3f 58 39 b4 c8 76 be f5 bf
       0.28388 -1.359
0006e0 44 51 a0 4f e4 49 d8 bf b0 3d b3 24 40 4d e0 3f
       -0.37951 0.50943
0006f0 1b 0d e0 2d 90 a0 e6 3f c0 cf b8 70 20 24 e4 3f
       0.7071 0.62941
000700 d0 b3 59 f5 b9 da f0 3f ba 6b 09 f9 a0 67 01 c0
       1.0534 -2.1756
000710 e3 36 1a c0 5b 20 f5 bf 60 ab 04 8b c3 99 d9 3f
       -1.3204 0.40001
000720 3a 23 4a 7b 83 2f f9 3f 8f c2 f5 28 5c 8f fa bf
       1.5741 -1.66
000730 cc ee c9 c3 42 2d 0e 40 89 5e 46 b1 dc d2 eb 3f
       3.7721 0.86949
000740 93 57 e7 18 90 bd e9 bf d2 00 de 02 09 8a c7 3f
       -0.80439 0.1839
000750 9b 03 04 73 f4 f8 d5 bf bf ef df bc 38 f1 85 3f
       -0.34332 0.010714
000760 91 d0 96 73 29 ae ce 3f de ca 12 9d 65 16 b1 3f
       0.23969 0.066748
000770 55 f6 5d 11 fc 6f e6 3f f6 ee 8f f7 aa 95 e7 bf
       0.70117 -0.73702
000780 d4 65 31 b1 f9 b8 ca 3f 43 04 1c 42 95 9a bd 3f
       0.20877 0.11564
000790 53 96 21 8e 75 71 c3 bf cb b9 14 57 95 7d eb 3f
       -0.1519 0.85908
0007a0 32 77 2d 21 1f f4 cc 3f a2 28 d0 27 f2 24 c5 3f
       0.2262 0.16519
0007b0 06 4c e0 d6 dd 3c d7 3f 1e 33 50 19 ff 3e dd bf
       0.36309 -0.45697
0007c0 3a 20 09 fb 76 12 a9 bf 25 75 02 9a 08 1b f2 3f
       -0.048969 1.1316
0007d0 b7 97 34 46 eb a8 c2 bf bd 6f 7c ed 99 25 e0 3f
       -0.14578 0.50459
0007e0 da 1b 7c 61 32 55 a8 3f 06 64 af 77 7f bc dd bf
       0.047525 -0.46463
0007f0 8b a6 b3 93 c1 51 dc 3f 9d 4b 71 55 d9 77 c5 bf
       0.44249 -0.16772
